…
  milestones:
  - 1000
  - 50000
  weight_decay: 0
  save_freq: 500
  val_freq: 500
  log_freq:
  - 10
  - 5000
  - 5
  save_images: true
  use_ema_val: true
  test_baseline: true
experiment_evaluate:
  save_images: true
  save_path: experiment_evaluate_16000_bicubic_only
  batch: 80
  prefetch_factor: 8
  num_workers: 12
save_dir: ./saved_logs
resume: ''
cfg_path: configs/SinSR_eval.yaml

Initializing model from logs/SinSR/2024-09-17-05-49/ema_ckpts/ema_model_16000.pth
Restoring autoencoder from weights/autoencoder_vq_f4.pth
Detailed network architecture:
UNetModelSwin(
  (time_embed): Sequential(
    (0): Linear(in_features=160, out_features=640, bias=True)
    (1): SiLU()
    (2): Linear(in_features=640, out_features=640, bias=True)
  )
  (input_blocks): ModuleList(
    (0): TimestepEmbedSequential(
      (0): Conv2d(6, 160, kernel_size=(3, 3), stride=(1, 1), padding=(1, 1))
    )
    (1): TimestepEmbedSequential(
      (0): ResBlock(
        (in_layers): Sequential(
          (0): GroupNorm32(32, 160, eps=1e-05, affine=True)
          (1): SiLU()
          (2): Conv2d(160, 160, kernel_size=(3, 3), stride=(1, 1), padding=(1, 1))
        )
        (h_upd): Identity()
        (x_upd): Identity()
        (emb_layers): Sequential(
          (0): SiLU()
          (1): Linear(in_features=640, out_features=320, bias=True)
        )
        (out_layers): Sequential(
          (0): GroupNorm32(32, 160, eps=1e-05, affine=True)
          (1): SiLU()
          (2): Dropout(p=0, inplace=False)
          (3): Conv2d(160, 160, kernel_size=(3, 3), stride=(1, 1), padding=(1, 1))
        )
        (skip_connection): Identity()
      )
      (1): BasicLayer(
        (patch_embed): PatchEmbed(
          (proj): Conv2d(160, 192, kernel_size=(1, 1), stride=(1, 1))
          (norm): Identity()
        )
        (patch_unembed): PatchUnEmbed(
          (proj): Conv2d(192, 160, kernel_size=(1, 1), stride=(1, 1))
          (norm): Identity()
        )
        (blocks): ModuleList(
          (0): SwinTransformerBlock(
            dim=192, input_resolution=[64, 64], num_heads=6, window_size=8, shift_size=0, mlp_ratio=4
            (norm1): GroupNorm32(32, 192, eps=1e-05, affine=True)
            (attn): WindowAttention(
              dim=192, window_size=(8, 8), num_heads=6
              (qkv): Linear(in_features=192, out_features=576, bias=True)
              (attn_drop): Dropout(p=0.0, inplace=False)
              (proj): Linear(in_features=192, out_features=192, bias=True)
              (proj_drop): Dropout(p=0, inplace=False)
              (softmax): Softmax(dim=-1)
            )
            (drop_path): Identity()
            (norm2): GroupNorm32(32, 192, eps=1e-05, affine=True)
            (mlp): Mlp(
              (fc1): Conv2d(192, 768, kernel_size=(1, 1), stride=(1, 1))
              (act): GELU(approximate='none')
              (fc2): Conv2d(768, 192, kernel_size=(1, 1), stride=(1, 1))
              (drop): Dropout(p=0, inplace=False)
            )
          )
          (1): SwinTransformerBlock(
            dim=192, input_resolution=[64, 64], num_heads=6, window_size=8, shift_size=4, mlp_ratio=4
            (norm1): GroupNorm32(32, 192, eps=1e-05, affine=True)
            (attn): WindowAttention(
              dim=192, window_size=(8, 8), num_heads=6
              (qkv): Linear(in_features=192, out_features=576, bias=True)
              (attn_drop): Dropout(p=0.0, inplace=False)
              (proj): Linear(in_features=192, out_features=192, bias=True)
              (proj_drop): Dropout(p=0, inplace=False)
              (softmax): Softmax(dim=-1)
            )
            (drop_path): Identity()
            (norm2): GroupNorm32(32, 192, eps=1e-05, affine=True)
            (mlp): Mlp(
              (fc1): Conv2d(192, 768, kernel_size=(1, 1), stride=(1, 1))
              (act): GELU(approximate='none')
              (fc2): Conv2d(768, 192, kernel_size=(1, 1), stride=(1, 1))
              (drop): Dropout(p=0, inplace=False)
            )
          )
        )
      )
    )
    (2): TimestepEmbedSequential(
      (0): ResBlock(
        (in_layers): Sequential(
          (0): GroupNorm32(32, 160, eps=1e-05, affine=True)
          (1): SiLU()
          (2): Conv2d(160, 160, kernel_size=(3, 3), stride=(1, 1), padding=(1, 1))
        )
        (h_upd): Identity()
        (x_upd): Identity()
        (emb_layers): Sequential(
          (0): SiLU()
          (1): Linear(in_features=640, out_features=320, bias=True)
        )
        (out_layers): Sequential(
          (0): GroupNorm32(32, 160, eps=1e-05, affine=True)
          (1): SiLU()
          (2): Dropout(p=0, inplace=False)
          (3): Conv2d(160, 160, kernel_size=(3, 3), stride=(1, 1), padding=(1, 1))
        )
        (skip_connection): Identity()
      )
    )
    (3): TimestepEmbedSequential(
      (0): Downsample(
        (op): Conv2d(160, 160, kernel_size=(3, 3), stride=(2, 2), padding=(1, 1))
      )
    )
    (4): TimestepEmbedSequential(
      (0): ResBlock(
        (in_layers): Sequential(
          (0): GroupNorm32(32, 160, eps=1e-05, affine=True)
          (1): SiLU()
          (2): Conv2d(160, 320, kernel_size=(3, 3), stride=(1, 1), padding=(1, 1))
        )
        (h_upd): Identity()
        (x_upd): Identity()
        (emb_layers): Sequential(
          (0): SiLU()
          (1): Linear(in_features=640, out_features=640, bias=True)
        )
        (out_layers): Sequential(
          (0): GroupNorm32(32, 320, eps=1e-05, affine=True)
          (1): SiLU()
          (2): Dropout(p=0, inplace=False)
          (3): Conv2d(320, 320, kernel_size=(3, 3), stride=(1, 1), padding=(1, 1))
        )
        (skip_connection): Conv2d(160, 320, kernel_size=(1, 1), stride=(1, 1))
      )
      (1): BasicLayer(
        (patch_embed): PatchEmbed(
          (proj): Conv2d(320, 192, kernel_size=(1, 1), stride=(1, 1))
          (norm): Identity()
        )
        (patch_unembed): PatchUnEmbed(
          (proj): Conv2d(192, 320, kernel_size=(1, 1), stride=(1, 1))
          (norm): Identity()
        )
        (blocks): ModuleList(
          (0): SwinTransformerBlock(
            dim=192, input_resolution=[32, 32], num_heads=6, window_size=8, shift_size=0, mlp_ratio=4
            (norm1): GroupNorm32(32, 192, eps=1e-05, affine=True)
            (attn): WindowAttention(
              dim=192, window_size=(8, 8), num_heads=6
              (qkv): Linear(in_features=192, out_features=576, bias=True)
              (attn_drop): Dropout(p=0.0, inplace=False)
              (proj): Linear(in_features=192, out_features=192, bias=True)
              (proj_drop): Dropout(p=0, inplace=False)
              (softmax): Softmax(dim=-1)
            )
            (drop_path): Identity()
            (norm2): GroupNorm32(32, 192, eps=1e-05, affine=True)
            (mlp): Mlp(
              (fc1): Conv2d(192, 768, kernel_size=(1, 1), stride=(1, 1))
              (act): GELU(approximate='none')
              (fc2): Conv2d(768, 192, kernel_size=(1, 1), stride=(1, 1))
              (drop): Dropout(p=0, inplace=False)
            )
          )
          (1): SwinTransformerBlock(
            dim=192, input_resolution=[32, 32], num_heads=6, window_size=8, shift_size=4, mlp_ratio=4
            (norm1): GroupNorm32(32, 192, eps=1e-05, affine=True)
            (attn): WindowAttention(
              dim=192, window_size=(8, 8), num_heads=6
              (qkv): Linear(in_features=192, out_features=576, bias=True)
              (attn_drop): Dropout(p=0.0, inplace=False)
              (proj): Linear(in_features=192, out_features=192, bias=True)
              (proj_drop): Dropout(p=0, inplace=False)
              (softmax): Softmax(dim=-1)
            )
            (drop_path): Identity()
            (norm2): GroupNorm32(32, 192, eps=1e-05, affine=True)
            (mlp): Mlp(
              (fc1): Conv2d(192, 768, kernel_size=(1, 1), stride=(1, 1))
              (act): GELU(approximate='none')
              (fc2): Conv2d(768, 192, kernel_size=(1, 1), stride=(1, 1))
              (drop): Dropout(p=0, inplace=False)
            )
          )
        )
      )
    )
    (5): TimestepEmbedSequential(
      (0): ResBlock(
        (in_layers): Sequential(
          (0): GroupNorm32(32, 320, eps=1e-05, affine=True)
          (1): SiLU()
          (2): Conv2d(320, 320, kernel_size=(3, 3), stride=(1, 1), padding=(1, 1))
        )
        (h_upd): Identity()
        (x_upd): Identity()
        (emb_layers): Sequential(
          (0): SiLU()
          (1): Linear(in_features=640, out_features=640, bias=True)
        )
        (out_layers): Sequential(
          (0): GroupNorm32(32, 320, eps=1e-05, affine=True)
          (1): SiLU()
          (2): Dropout(p=0, inplace=False)
          (3): Conv2d(320, 320, kernel_size=(3, 3), stride=(1, 1), padding=(1, 1))
        )
        (skip_connection): Identity()
      )
    )
    (6): TimestepEmbedSequential(
      (0): Downsample(
        (op): Conv2d(320, 320, kernel_size=(3, 3), stride=(2, 2), padding=(1, 1))
      )
    )
    (7): TimestepEmbedSequential(
      (0): ResBlock(
        (in_layers): Sequential(
          (0): GroupNorm32(32, 320, eps=1e-05, affine=True)
          (1): SiLU()
          (2): Conv2d(320, 320, kernel_size=(3, 3), stride=(1, 1), padding=(1, 1))
        )
        (h_upd): Identity()
        (x_upd): Identity()
        (emb_layers): Sequential(
          (0): SiLU()
          (1): Linear(in_features=640, out_features=640, bias=True)
        )
        (out_layers): Sequential(
          (0): GroupNorm32(32, 320, eps=1e-05, affine=True)
          (1): SiLU()
          (2): Dropout(p=0, inplace=False)
          (3): Conv2d(320, 320, kernel_size=(3, 3), stride=(1, 1), padding=(1, 1))
        )
        (skip_connection): Identity()
      )
      (1): BasicLayer(
        (patch_embed): PatchEmbed(
          (proj): Conv2d(320, 192, kernel_size=(1, 1), stride=(1, 1))
          (norm): Identity()
        )
        (patch_unembed): PatchUnEmbed(
          (proj): Conv2d(192, 320, kernel_size=(1, 1), stride=(1, 1))
          (norm): Identity()
        )
        (blocks): ModuleList(
          (0): SwinTransformerBlock(
            dim=192, input_resolution=[16, 16], num_heads=6, window_size=8, shift_size=0, mlp_ratio=4
            (norm1): GroupNorm32(32, 192, eps=1e-05, affine=True)
            (attn): WindowAttention(
              dim=192, window_size=(8, 8), num_heads=6
              (qkv): Linear(in_features=192, out_features=576, bias=True)
              (attn_drop): Dropout(p=0.0, inplace=False)
              (proj): Linear(in_features=192, out_features=192, bias=True)
              (proj_drop): Dropout(p=0, inplace=False)
              (softmax): Softmax(dim=-1)
            )
            (drop_path): Identity()
            (norm2): GroupNorm32(32, 192, eps=1e-05, affine=True)
            (mlp): Mlp(
              (fc1): Conv2d(192, 768, kernel_size=(1, 1), stride=(1, 1))
              (act): GELU(approximate='none')
              (fc2): Conv2d(768, 192, kernel_size=(1, 1), stride=(1, 1))
              (drop): Dropout(p=0, inplace=False)
            )
          )
          (1): SwinTransformerBlock(
            dim=192, input_resolution=[16, 16], num_heads=6, window_size=8, shift_size=4, mlp_ratio=4
            (norm1): GroupNorm32(32, 192, eps=1e-05, affine=True)
            (attn): WindowAttention(
              dim=192, window_size=(8, 8), num_heads=6
              (qkv): Linear(in_features=192, out_features=576, bias=True)
              (attn_drop): Dropout(p=0.0, inplace=False)
              (proj): Linear(in_features=192, out_features=192, bias=True)
              (proj_drop): Dropout(p=0, inplace=False)
              (softmax): Softmax(dim=-1)
            )
            (drop_path): Identity()
            (norm2): GroupNorm32(32, 192, eps=1e-05, affine=True)
            (mlp): Mlp(
              (fc1): Conv2d(192, 768, kernel_size=(1, 1), stride=(1, 1))
              (act): GELU(approximate='none')
              (fc2): Conv2d(768, 192, kernel_size=(1, 1), stride=(1, 1))
              (drop): Dropout(p=0, inplace=False)
            )
          )
        )
      )
    )
    (8): TimestepEmbedSequential(
      (0): ResBlock(
        (in_layers): Sequential(
          (0): GroupNorm32(32, 320, eps=1e-05, affine=True)
          (1): SiLU()
          (2): Conv2d(320, 320, kernel_size=(3, 3), stride=(1, 1), padding=(1, 1))
        )
        (h_upd): Identity()
        (x_upd): Identity()
        (emb_layers): Sequential(
          (0): SiLU()
          (1): Linear(in_features=640, out_features=640, bias=True)
        )
        (out_layers): Sequential(
          (0): GroupNorm32(32, 320, eps=1e-05, affine=True)
          (1): SiLU()
          (2): Dropout(p=0, inplace=False)
          (3): Conv2d(320, 320, kernel_size=(3, 3), stride=(1, 1), padding=(1, 1))
        )
        (skip_connection): Identity()
      )
    )
    (9): TimestepEmbedSequential(
      (0): Downsample(
        (op): Conv2d(320, 320, kernel_size=(3, 3), stride=(2, 2), padding=(1, 1))
      )
    )
    (10): TimestepEmbedSequential(
      (0): ResBlock(
        (in_layers): Sequential(
          (0): GroupNorm32(32, 320, eps=1e-05, affine=True)
          (1): SiLU()
          (2): Conv2d(320, 640, kernel_size=(3, 3), stride=(1, 1), padding=(1, 1))
        )
        (h_upd): Identity()
        (x_upd): Identity()
        (emb_layers): Sequential(
          (0): SiLU()
          (1): Linear(in_features=640, out_features=1280, bias=True)
        )
        (out_layers): Sequential(
          (0): GroupNorm32(32, 640, eps=1e-05, affine=True)
          (1): SiLU()
          (2): Dropout(p=0, inplace=False)
          (3): Conv2d(640, 640, kernel_size=(3, 3), stride=(1, 1), padding=(1, 1))
        )
        (skip_connection): Conv2d(320, 640, kernel_size=(1, 1), stride=(1, 1))
      )
      (1): BasicLayer(
        (patch_embed): PatchEmbed(
          (proj): Conv2d(640, 192, kernel_size=(1, 1), stride=(1, 1))
          (norm): Identity()
        )
        (patch_unembed): PatchUnEmbed(
          (proj): Conv2d(192, 640, kernel_size=(1, 1), stride=(1, 1))
          (norm): Identity()
        )
        (blocks): ModuleList(
          (0-1): 2 x SwinTransformerBlock(
            dim=192, input_resolution=[8, 8], num_heads=6, window_size=8, shift_size=0, mlp_ratio=4
            (norm1): GroupNorm32(32, 192, eps=1e-05, affine=True)
            (attn): WindowAttention(
              dim=192, window_size=(8, 8), num_heads=6
              (qkv): Linear(in_features=192, out_features=576, bias=True)
              (attn_drop): Dropout(p=0.0, inplace=False)
              (proj): Linear(in_features=192, out_features=192, bias=True)
              (proj_drop): Dropout(p=0, inplace=False)
              (softmax): Softmax(dim=-1)
            )
            (drop_path): Identity()
            (norm2): GroupNorm32(32, 192, eps=1e-05, affine=True)
            (mlp): Mlp(
              (fc1): Conv2d(192, 768, kernel_size=(1, 1), stride=(1, 1))
              (act): GELU(approximate='none')
              (fc2): Conv2d(768, 192, kernel_size=(1, 1), stride=(1, 1))
              (drop): Dropout(p=0, inplace=False)
            )
          )
        )
      )
    )
    (11): TimestepEmbedSequential(
      (0): ResBlock(
        (in_layers): Sequential(
          (0): GroupNorm32(32, 640, eps=1e-05, affine=True)
          (1): SiLU()
          (2): Conv2d(640, 640, kernel_size=(3, 3), stride=(1, 1), padding=(1, 1))
        )
        (h_upd): Identity()
        (x_upd): Identity()
        (emb_layers): Sequential(
          (0): SiLU()
          (1): Linear(in_features=640, out_features=1280, bias=True)
        )
        (out_layers): Sequential(
          (0): GroupNorm32(32, 640, eps=1e-05, affine=True)
          (1): SiLU()
          (2): Dropout(p=0, inplace=False)
          (3): Conv2d(640, 640, kernel_size=(3, 3), stride=(1, 1), padding=(1, 1))
        )
        (skip_connection): Identity()
      )
    )
  )
  (middle_block): TimestepEmbedSequential(
    (0): ResBlock(
      (in_layers): Sequential(
        (0): GroupNorm32(32, 640, eps=1e-05, affine=True)
        (1): SiLU()
        (2): Conv2d(640, 640, kernel_size=(3, 3), stride=(1, 1), padding=(1, 1))
      )
      (h_upd): Identity()
      (x_upd): Identity()
      (emb_layers): Sequential(
        (0): SiLU()
        (1): Linear(in_features=640, out_features=1280, bias=True)
      )
      (out_layers): Sequential(
        (0): GroupNorm32(32, 640, eps=1e-05, affine=True)
        (1): SiLU()
        (2): Dropout(p=0, inplace=False)
        (3): Conv2d(640, 640, kernel_size=(3, 3), stride=(1, 1), padding=(1, 1))
      )
      (skip_connection): Identity()
    )
    (1): BasicLayer(
      (patch_embed): PatchEmbed(
        (proj): Conv2d(640, 192, kernel_size=(1, 1), stride=(1, 1))
        (norm): Identity()
      )
      (patch_unembed): PatchUnEmbed(
        (proj): Conv2d(192, 640, kernel_size=(1, 1), stride=(1, 1))
        (norm): Identity()
      )
      (blocks): ModuleList(
        (0-1): 2 x SwinTransformerBlock(
          dim=192, input_resolution=[8, 8], num_heads=6, window_size=8, shift_size=0, mlp_ratio=4
          (norm1): GroupNorm32(32, 192, eps=1e-05, affine=True)
          (attn): WindowAttention(
            dim=192, window_size=(8, 8), num_heads=6
            (qkv): Linear(in_features=192, out_features=576, bias=True)
            (attn_drop): Dropout(p=0.0, inplace=False)
            (proj): Linear(in_features=192, out_features=192, bias=True)
            (proj_drop): Dropout(p=0, inplace=False)
            (softmax): Softmax(dim=-1)
          )
          (drop_path): Identity()
          (norm2): GroupNorm32(32, 192, eps=1e-05, affine=True)
          (mlp): Mlp(
            (fc1): Conv2d(192, 768, kernel_size=(1, 1), stride=(1, 1))
            (act): GELU(approximate='none')
            (fc2): Conv2d(768, 192, kernel_size=(1, 1), stride=(1, 1))
            (drop): Dropout(p=0, inplace=False)
          )
        )
      )
    )
    (2): ResBlock(
      (in_layers): Sequential(
        (0): GroupNorm32(32, 640, eps=1e-05, affine=True)
        (1): SiLU()
        (2): Conv2d(640, 640, kernel_size=(3, 3), stride=(1, 1), padding=(1, 1))
      )
      (h_upd): Identity()
      (x_upd): Identity()
      (emb_layers): Sequential(
        (0): SiLU()
        (1): Linear(in_features=640, out_features=1280, bias=True)
      )
      (out_layers): Sequential(
        (0): GroupNorm32(32, 640, eps=1e-05, affine=True)
        (1): SiLU()
        (2): Dropout(p=0, inplace=False)
        (3): Conv2d(640, 640, kernel_size=(3, 3), stride=(1, 1), padding=(1, 1))
      )
      (skip_connection): Identity()
    )
  )
  (output_blocks): ModuleList(
    (0): TimestepEmbedSequential(
      (0): ResBlock(
        (in_layers): Sequential(
          (0): GroupNorm32(32, 1280, eps=1e-05, affine=True)
          (1): SiLU()
          (2): Conv2d(1280, 640, kernel_size=(3, 3), stride=(1, 1), padding=(1, 1))
        )
        (h_upd): Identity()
        (x_upd): Identity()
        (emb_layers): Sequential(
          (0): SiLU()
          (1): Linear(in_features=640, out_features=1280, bias=True)
        )
        (out_layers): Sequential(
          (0): GroupNorm32(32, 640, eps=1e-05, affine=True)
          (1): SiLU()
          (2): Dropout(p=0, inplace=False)
          (3): Conv2d(640, 640, kernel_size=(3, 3), stride=(1, 1), padding=(1, 1))
        )
        (skip_connection): Conv2d(1280, 640, kernel_size=(1, 1), stride=(1, 1))
      )
      (1): BasicLayer(
        (patch_embed): PatchEmbed(
          (proj): Conv2d(640, 192, kernel_size=(1, 1), stride=(1, 1))
          (norm): Identity()
        )
        (patch_unembed): PatchUnEmbed(
          (proj): Conv2d(192, 640, kernel_size=(1, 1), stride=(1, 1))
          (norm): Identity()
        )
        (blocks): ModuleList(
          (0-1): 2 x SwinTransformerBlock(
            dim=192, input_resolution=[8, 8], num_heads=6, window_size=8, shift_size=0, mlp_ratio=4
            (norm1): GroupNorm32(32, 192, eps=1e-05, affine=True)
            (attn): WindowAttention(
              dim=192, window_size=(8, 8), num_heads=6
              (qkv): Linear(in_features=192, out_features=576, bias=True)
              (attn_drop): Dropout(p=0.0, inplace=False)
              (proj): Linear(in_features=192, out_features=192, bias=True)
              (proj_drop): Dropout(p=0, inplace=False)
              (softmax): Softmax(dim=-1)
            )
            (drop_path): Identity()
            (norm2): GroupNorm32(32, 192, eps=1e-05, affine=True)
            (mlp): Mlp(
              (fc1): Conv2d(192, 768, kernel_size=(1, 1), stride=(1, 1))
              (act): GELU(approximate='none')
              (fc2): Conv2d(768, 192, kernel_size=(1, 1), stride=(1, 1))
              (drop): Dropout(p=0, inplace=False)
            )
          )
        )
      )
    )
    (1): TimestepEmbedSequential(
      (0): ResBlock(
        (in_layers): Sequential(
          (0): GroupNorm32(32, 1280, eps=1e-05, affine=True)
          (1): SiLU()
          (2): Conv2d(1280, 640, kernel_size=(3, 3), stride=(1, 1), padding=(1, 1))
        )
        (h_upd): Identity()
        (x_upd): Identity()
        (emb_layers): Sequential(
          (0): SiLU()
          (1): Linear(in_features=640, out_features=1280, bias=True)
        )
        (out_layers): Sequential(
          (0): GroupNorm32(32, 640, eps=1e-05, affine=True)
          (1): SiLU()
          (2): Dropout(p=0, inplace=False)
          (3): Conv2d(640, 640, kernel_size=(3, 3), stride=(1, 1), padding=(1, 1))
        )
        (skip_connection): Conv2d(1280, 640, kernel_size=(1, 1), stride=(1, 1))
      )
    )
    (2): TimestepEmbedSequential(
      (0): ResBlock(
        (in_layers): Sequential(
          (0): GroupNorm32(32, 960, eps=1e-05, affine=True)
          (1): SiLU()
          (2): Conv2d(960, 640, kernel_size=(3, 3), stride=(1, 1), padding=(1, 1))
        )
        (h_upd): Identity()
        (x_upd): Identity()
        (emb_layers): Sequential(
          (0): SiLU()
          (1): Linear(in_features=640, out_features=1280, bias=True)
        )
        (out_layers): Sequential(
          (0): GroupNorm32(32, 640, eps=1e-05, affine=True)
          (1): SiLU()
          (2): Dropout(p=0, inplace=False)
          (3): Conv2d(640, 640, kernel_size=(3, 3), stride=(1, 1), padding=(1, 1))
        )
        (skip_connection): Conv2d(960, 640, kernel_size=(1, 1), stride=(1, 1))
      )
      (1): Upsample(
        (conv): Conv2d(640, 640, kernel_size=(3, 3), stride=(1, 1), padding=(1, 1))
      )
    )
    (3): TimestepEmbedSequential(
      (0): ResBlock(
        (in_layers): Sequential(
          (0): GroupNorm32(32, 960, eps=1e-05, affine=True)
          (1): SiLU()
          (2): Conv2d(960, 320, kernel_size=(3, 3), stride=(1, 1), padding=(1, 1))
        )
        (h_upd): Identity()
        (x_upd): Identity()
        (emb_layers): Sequential(
          (0): SiLU()
          (1): Linear(in_features=640, out_features=640, bias=True)
        )
        (out_layers): Sequential(
          (0): GroupNorm32(32, 320, eps=1e-05, affine=True)
          (1): SiLU()
          (2): Dropout(p=0, inplace=False)
          (3): Conv2d(320, 320, kernel_size=(3, 3), stride=(1, 1), padding=(1, 1))
        )
        (skip_connection): Conv2d(960, 320, kernel_size=(1, 1), stride=(1, 1))
      )
      (1): BasicLayer(
        (patch_embed): PatchEmbed(
          (proj): Conv2d(320, 192, kernel_size=(1, 1), stride=(1, 1))
          (norm): Identity()
        )
        (patch_unembed): PatchUnEmbed(
          (proj): Conv2d(192, 320, kernel_size=(1, 1), stride=(1, 1))
          (norm): Identity()
        )
        (blocks): ModuleList(
          (0): SwinTransformerBlock(
            dim=192, input_resolution=[16, 16], num_heads=6, window_size=8, shift_size=0, mlp_ratio=4
            (norm1): GroupNorm32(32, 192, eps=1e-05, affine=True)
            (attn): WindowAttention(
              dim=192, window_size=(8, 8), num_heads=6
              (qkv): Linear(in_features=192, out_features=576, bias=True)
              (attn_drop): Dropout(p=0.0, inplace=False)
              (proj): Linear(in_features=192, out_features=192, bias=True)
              (proj_drop): Dropout(p=0, inplace=False)
              (softmax): Softmax(dim=-1)
            )
            (drop_path): Identity()
            (norm2): GroupNorm32(32, 192, eps=1e-05, affine=True)
            (mlp): Mlp(
              (fc1): Conv2d(192, 768, kernel_size=(1, 1), stride=(1, 1))
              (act): GELU(approximate='none')
              (fc2): Conv2d(768, 192, kernel_size=(1, 1), stride=(1, 1))
              (drop): Dropout(p=0, inplace=False)
            )
          )
          (1): SwinTransformerBlock(
            dim=192, input_resolution=[16, 16], num_heads=6, window_size=8, shift_size=4, mlp_ratio=4
            (norm1): GroupNorm32(32, 192, eps=1e-05, affine=True)
            (attn): WindowAttention(
              dim=192, window_size=(8, 8), num_heads=6
              (qkv): Linear(in_features=192, out_features=576, bias=True)
              (attn_drop): Dropout(p=0.0, inplace=False)
              (proj): Linear(in_features=192, out_features=192, bias=True)
              (proj_drop): Dropout(p=0, inplace=False)
              (softmax): Softmax(dim=-1)
            )
            (drop_path): Identity()
            (norm2): GroupNorm32(32, 192, eps=1e-05, affine=True)
            (mlp): Mlp(
              (fc1): Conv2d(192, 768, kernel_size=(1, 1), stride=(1, 1))
              (act): GELU(approximate='none')
              (fc2): Conv2d(768, 192, kernel_size=(1, 1), stride=(1, 1))
              (drop): Dropout(p=0, inplace=False)
            )
          )
        )
      )
    )
    (4): TimestepEmbedSequential(
      (0): ResBlock(
        (in_layers): Sequential(
          (0): GroupNorm32(32, 640, eps=1e-05, affine=True)
          (1): SiLU()
          (2): Conv2d(640, 320, kernel_size=(3, 3), stride=(1, 1), padding=(1, 1))
        )
        (h_upd): Identity()
        (x_upd): Identity()
        (emb_layers): Sequential(
          (0): SiLU()
          (1): Linear(in_features=640, out_features=640, bias=True)
        )
        (out_layers): Sequential(
          (0): GroupNorm32(32, 320, eps=1e-05, affine=True)
          (1): SiLU()
          (2): Dropout(p=0, inplace=False)
          (3): Conv2d(320, 320, kernel_size=(3, 3), stride=(1, 1), padding=(1, 1))
        )
        (skip_connection): Conv2d(640, 320, kernel_size=(1, 1), stride=(1, 1))
      )
    )
    (5): TimestepEmbedSequential(
      (0): ResBlock(
        (in_layers): Sequential(
          (0): GroupNorm32(32, 640, eps=1e-05, affine=True)
          (1): SiLU()
          (2): Conv2d(640, 320, kernel_size=(3, 3), stride=(1, 1), padding=(1, 1))
        )
        (h_upd): Identity()
        (x_upd): Identity()
        (emb_layers): Sequential(
          (0): SiLU()
          (1): Linear(in_features=640, out_features=640, bias=True)
        )
        (out_layers): Sequential(
          (0): GroupNorm32(32, 320, eps=1e-05, affine=True)
          (1): SiLU()
          (2): Dropout(p=0, inplace=False)
          (3): Conv2d(320, 320, kernel_size=(3, 3), stride=(1, 1), padding=(1, 1))
        )
        (skip_connection): Conv2d(640, 320, kernel_size=(1, 1), stride=(1, 1))
      )
      (1): Upsample(
        (conv): Conv2d(320, 320, kernel_size=(3, 3), stride=(1, 1), padding=(1, 1))
      )
    )
    (6): TimestepEmbedSequential(
      (0): ResBlock(
        (in_layers): Sequential(
          (0): GroupNorm32(32, 640, eps=1e-05, affine=True)
          (1): SiLU()
          (2): Conv2d(640, 320, kernel_size=(3, 3), stride=(1, 1), padding=(1, 1))
        )
        (h_upd): Identity()
        (x_upd): Identity()
        (emb_layers): Sequential(
          (0): SiLU()
          (1): Linear(in_features=640, out_features=640, bias=True)
        )
        (out_layers): Sequential(
          (0): GroupNorm32(32, 320, eps=1e-05, affine=True)
          (1): SiLU()
          (2): Dropout(p=0, inplace=False)
          (3): Conv2d(320, 320, kernel_size=(3, 3), stride=(1, 1), padding=(1, 1))
        )
        (skip_connection): Conv2d(640, 320, kernel_size=(1, 1), stride=(1, 1))
      )
      (1): BasicLayer(
        (patch_embed): PatchEmbed(
          (proj): Conv2d(320, 192, kernel_size=(1, 1), stride=(1, 1))
          (norm): Identity()
        )
        (patch_unembed): PatchUnEmbed(
          (proj): Conv2d(192, 320, kernel_size=(1, 1), stride=(1, 1))
          (norm): Identity()
        )
        (blocks): ModuleList(
          (0): SwinTransformerBlock(
            dim=192, input_resolution=[32, 32], num_heads=6, window_size=8, shift_size=0, mlp_ratio=4
            (norm1): GroupNorm32(32, 192, eps=1e-05, affine=True)
            (attn): WindowAttention(
              dim=192, window_size=(8, 8), num_heads=6
              (qkv): Linear(in_features=192, out_features=576, bias=True)
              (attn_drop): Dropout(p=0.0, inplace=False)
              (proj): Linear(in_features=192, out_features=192, bias=True)
              (proj_drop): Dropout(p=0, inplace=False)
              (softmax): Softmax(dim=-1)
            )
            (drop_path): Identity()
            (norm2): GroupNorm32(32, 192, eps=1e-05, affine=True)
            (mlp): Mlp(
              (fc1): Conv2d(192, 768, kernel_size=(1, 1), stride=(1, 1))
              (act): GELU(approximate='none')
              (fc2): Conv2d(768, 192, kernel_size=(1, 1), stride=(1, 1))
              (drop): Dropout(p=0, inplace=False)
            )
          )
          (1): SwinTransformerBlock(
            dim=192, input_resolution=[32, 32], num_heads=6, window_size=8, shift_size=4, mlp_ratio=4
            (norm1): GroupNorm32(32, 192, eps=1e-05, affine=True)
            (attn): WindowAttention(
              dim=192, window_size=(8, 8), num_heads=6
              (qkv): Linear(in_features=192, out_features=576, bias=True)
              (attn_drop): Dropout(p=0.0, inplace=False)
              (proj): Linear(in_features=192, out_features=192, bias=True)
              (proj_drop): Dropout(p=0, inplace=False)
              (softmax): Softmax(dim=-1)
            )
            (drop_path): Identity()
            (norm2): GroupNorm32(32, 192, eps=1e-05, affine=True)
            (mlp): Mlp(
              (fc1): Conv2d(192, 768, kernel_size=(1, 1), stride=(1, 1))
              (act): GELU(approximate='none')
              (fc2): Conv2d(768, 192, kernel_size=(1, 1), stride=(1, 1))
              (drop): Dropout(p=0, inplace=False)
            )
          )
        )
      )
    )
    (7): TimestepEmbedSequential(
      (0): ResBlock(
        (in_layers): Sequential(
          (0): GroupNorm32(32, 640, eps=1e-05, affine=True)
          (1): SiLU()
          (2): Conv2d(640, 320, kernel_size=(3, 3), stride=(1, 1), padding=(1, 1))
        )
        (h_upd): Identity()
        (x_upd): Identity()
        (emb_layers): Sequential(
          (0): SiLU()
          (1): Linear(in_features=640, out_features=640, bias=True)
        )
        (out_layers): Sequential(
          (0): GroupNorm32(32, 320, eps=1e-05, affine=True)
          (1): SiLU()
          (2): Dropout(p=0, inplace=False)
          (3): Conv2d(320, 320, kernel_size=(3, 3), stride=(1, 1), padding=(1, 1))
        )
        (skip_connection): Conv2d(640, 320, kernel_size=(1, 1), stride=(1, 1))
      )
    )
    (8): TimestepEmbedSequential(
      (0): ResBlock(
        (in_layers): Sequential(
          (0): GroupNorm32(32, 480, eps=1e-05, affine=True)
          (1): SiLU()
          (2): Conv2d(480, 320, kernel_size=(3, 3), stride=(1, 1), padding=(1, 1))
        )
        (h_upd): Identity()
        (x_upd): Identity()
        (emb_layers): Sequential(
          (0): SiLU()
          (1): Linear(in_features=640, out_features=640, bias=True)
        )
        (out_layers): Sequential(
          (0): GroupNorm32(32, 320, eps=1e-05, affine=True)
          (1): SiLU()
          (2): Dropout(p=0, inplace=False)
          (3): Conv2d(320, 320, kernel_size=(3, 3), stride=(1, 1), padding=(1, 1))
        )
        (skip_connection): Conv2d(480, 320, kernel_size=(1, 1), stride=(1, 1))
      )
      (1): Upsample(
        (conv): Conv2d(320, 320, kernel_size=(3, 3), stride=(1, 1), padding=(1, 1))
      )
    )
    (9): TimestepEmbedSequential(
      (0): ResBlock(
        (in_layers): Sequential(
          (0): GroupNorm32(32, 480, eps=1e-05, affine=True)
          (1): SiLU()
          (2): Conv2d(480, 160, kernel_size=(3, 3), stride=(1, 1), padding=(1, 1))
        )
        (h_upd): Identity()
        (x_upd): Identity()
        (emb_layers): Sequential(
          (0): SiLU()
          (1): Linear(in_features=640, out_features=320, bias=True)
        )
        (out_layers): Sequential(
          (0): GroupNorm32(32, 160, eps=1e-05, affine=True)
          (1): SiLU()
          (2): Dropout(p=0, inplace=False)
          (3): Conv2d(160, 160, kernel_size=(3, 3), stride=(1, 1), padding=(1, 1))
        )
        (skip_connection): Conv2d(480, 160, kernel_size=(1, 1), stride=(1, 1))
      )
      (1): BasicLayer(
        (patch_embed): PatchEmbed(
          (proj): Conv2d(160, 192, kernel_size=(1, 1), stride=(1, 1))
          (norm): Identity()
        )
        (patch_unembed): PatchUnEmbed(
          (proj): Conv2d(192, 160, kernel_size=(1, 1), stride=(1, 1))
          (norm): Identity()
        )
        (blocks): ModuleList(
          (0): SwinTransformerBlock(
            dim=192, input_resolution=[64, 64], num_heads=6, window_size=8, shift_size=0, mlp_ratio=4
            (norm1): GroupNorm32(32, 192, eps=1e-05, affine=True)
            (attn): WindowAttention(
              dim=192, window_size=(8, 8), num_heads=6
              (qkv): Linear(in_features=192, out_features=576, bias=True)
              (attn_drop): Dropout(p=0.0, inplace=False)
              (proj): Linear(in_features=192, out_features=192, bias=True)
              (proj_drop): Dropout(p=0, inplace=False)
              (softmax): Softmax(dim=-1)
            )
            (drop_path): Identity()
            (norm2): GroupNorm32(32, 192, eps=1e-05, affine=True)
            (mlp): Mlp(
              (fc1): Conv2d(192, 768, kernel_size=(1, 1), stride=(1, 1))
              (act): GELU(approximate='none')
              (fc2): Conv2d(768, 192, kernel_size=(1, 1), stride=(1, 1))
              (drop): Dropout(p=0, inplace=False)
            )
          )
          (1): SwinTransformerBlock(
            dim=192, input_resolution=[64, 64], num_heads=6, window_size=8, shift_size=4, mlp_ratio=4
            (norm1): GroupNorm32(32, 192, eps=1e-05, affine=True)
            (attn): WindowAttention(
              dim=192, window_size=(8, 8), num_heads=6
              (qkv): Linear(in_features=192, out_features=576, bias=True)
              (attn_drop): Dropout(p=0.0, inplace=False)
              (proj): Linear(in_features=192, out_features=192, bias=True)
              (proj_drop): Dropout(p=0, inplace=False)
              (softmax): Softmax(dim=-1)
            )
            (drop_path): Identity()
            (norm2): GroupNorm32(32, 192, eps=1e-05, affine=True)
            (mlp): Mlp(
              (fc1): Conv2d(192, 768, kernel_size=(1, 1), stride=(1, 1))
              (act): GELU(approximate='none')
              (fc2): Conv2d(768, 192, kernel_size=(1, 1), stride=(1, 1))
              (drop): Dropout(p=0, inplace=False)
            )
          )
        )
      )
    )
    (10-11): 2 x TimestepEmbedSequential(
      (0): ResBlock(
        (in_layers): Sequential(
          (0): GroupNorm32(32, 320, eps=1e-05, affine=True)
          (1): SiLU()
          (2): Conv2d(320, 160, kernel_size=(3, 3), stride=(1, 1), padding=(1, 1))
        )
        (h_upd): Identity()
        (x_upd): Identity()
        (emb_layers): Sequential(
          (0): SiLU()
          (1): Linear(in_features=640, out_features=320, bias=True)
        )
        (out_layers): Sequential(
          (0): GroupNorm32(32, 160, eps=1e-05, affine=True)
          (1): SiLU()
          (2): Dropout(p=0, inplace=False)
          (3): Conv2d(160, 160, kernel_size=(3, 3), stride=(1, 1), padding=(1, 1))
        )
        (skip_connection): Conv2d(320, 160, kernel_size=(1, 1), stride=(1, 1))
      )
    )
  )
  (out): Sequential(
    (0): GroupNorm32(32, 160, eps=1e-05, affine=True)
    (1): SiLU()
    (2): Conv2d(160, 3, kernel_size=(3, 3), stride=(1, 1), padding=(1, 1))
  )
)
Number of parameters: 118.59M
Number of images in train data set: 1000000000
Number of images in expr data set: 1000000000
Number of images in val data set: 0
